models/gnn_dengue.pt (torch, 307765 bytes, 33 tensors)

gcn_layers.0.bias f4 [32]
0	0x3f072922	0.5279714
1	0x3f803d25	1.001866
2	0x3f62460b	0.8838813
3	0xbee0f128	-0.43933988
4	0xbe187a00	-0.1489029
5	0x3ea7179f	0.3263521
6	0x3f870d8a	1.0551007
7	0x00000000	0.0
8	0x3f3a1f2e	0.72703826
9	0xbf43c400	-0.7647095
10	0xbce1171f	-0.027476845
11	0x3f58df58	0.84715796
12	0x00000000	0.0
13	0x3fe1acf6	1.7630908
14	0xbf9db5de	-1.2321126
15	0x3ead3e12	0.33836418
16	0x3f3c688f	0.73597044
17	0xbf62802b	-0.8847682
18	0x3ea83429	0.32852295
19	0x00000000	0.0
20	0x3fac45b1	1.3458768
21	0xbdf22e2c	-0.11825213
22	0xbf7cf36e	-0.98808944
23	0x3d94fdf9	0.07275004
24	0xbf49fcc5	-0.7890132
25	0xbf746280	-0.954628
26	0xbf205b6b	-0.6263949
27	0x3dae4fbc	0.08511302
28	0x3f45c8a2	0.77259266
29	0x3f2d4181	0.67678076
30	0xbf0bac22	-0.5455953
31	0x3d8b833d	0.06812141

gcn_layers.0.lin.weight f4 [32, 7]
0	0x3e015f8c	0.12634104
1	0xbf01a790	-0.50646305
2	0x3edaede7	0.4275963
3	0xbe98f505	-0.29874435
4	0x3e98a1b5	0.29810873
5	0xbec4589c	-0.38348854
6	0xbf25b203	-0.6472475
7	0xbf263121	-0.64918715
8	0x3b835ced	0.0040088804
9	0x3f369a13	0.7132885
10	0x3e1c14dc	0.15242332
11	0x3e695db3	0.2278965
12	0xbdc09a9c	-0.094044894
13	0xbe159466	-0.14607391
14	0xbea50b13	-0.3223501
15	0x3ddd687a	0.10810943
16	0x3e254dc0	0.1614294
17	0x3e91b931	0.28461602
18	0xbe7b86b6	-0.24563107
19	0x3da7259b	0.081614695
20	0xbd863f42	-0.06555034
21	0x3e21af4d	0.15789528
22	0xbe4587f8	-0.19290149
23	0xbef94b69	-0.48690346
24	0x3e15473d	0.14577956
25	0xbe8ffdac	-0.28123224
26	0xbec46387	-0.38357183
27	0xbddbf7ac	-0.10740599
28	0x3c07dd40	0.008292496
29	0xbecebe50	-0.40379572
30	0xbe5321f0	-0.20618415
31	0x3ed2c622	0.41166788
32	0xbe690b63	-0.2275825
33	0xbddcde69	-0.10784609
34	0xbc43aaa8	-0.011942543
35	0x3e823fa2	0.25439173
36	0xbe9c7f91	-0.30566075
37	0x3e2df230	0.16986918
38	0xbe34cad3	-0.17655496
39	0xbe392ca8	-0.18083441
40	0x3c5953a2	0.0132645685
41	0x3c2d4f8c	0.0105780475
42	0xbf1c6729	-0.6109491
43	0x3e9f6d27	0.31137964
44	0x3e9ac2f4	0.30226862
45	0xbd4296ee	-0.04750722
46	0xbdbad48e	-0.09122573
47	0xbd9b4c21	-0.0758288
48	0x3ee4080e	0.44537395
49	0xbcb94190	-0.02261427
50	0xbe98f85c	-0.29876983
51	0xbe9fd8e8	-0.31220174
52	0xbe5535b8	-0.20821273
53	0xbd123e48	-0.035703927
54	0x3e1dc89e	0.1540856
55	0xbd969bcc	-0.07353935
56	0xbe10c27b	-0.14136688
57	0x3e2813f0	0.16413856
58	0x3ebed4f7	0.37271854
59	0x3d2f89f3	0.042856168
60	0x3f065cb8	0.5248523
61	0xbdd49fe1	-0.10382057
62	0x3ee82662	0.45341784
63	0xbd672f0f	-0.056441363
64	0x3dfafa84	0.12254813
65	0xbec874fd	-0.39151755
66	0xbd94cb29	-0.07265312
67	0xbe951ff1	-0.29125932
68	0xbe91f912	-0.28510338
69	0x3e5225d6	0.20522246
70	0xbdfeb5b2	-0.124369994
71	0xbdee9137	-0.11648791
72	0xbe929108	-0.28626275
73	0xbcb60ad8	-0.022221968
74	0xbcf57f40	-0.029967904
75	0x3e6a7327	0.2289549
76	0x3e279837	0.16366659
77	0xbf32b271	-0.6980353
78	0xbd07efe8	-0.033187777
79	0x3ee030fe	0.43787378
80	0x3ec3d6f3	0.3824993
81	0x3edbb58a	0.4291194
82	0x3df6eeeb	0.12057289
83	0x3d75efc3	0.060043108
84	0xbeb88a67	-0.36043093
85	0xbe668986	-0.22513399
86	0x3ea9a169	0.3313096
87	0xbe3ce572	-0.18446901
88	0x3d603970	0.054742277
89	0xbeae6d47	-0.34067747
90	0xbd5cd680	-0.0539155
91	0xbfe0719b	-1.753467
92	0x3d34982e	0.044090442
93	0x3eeb1e20	0.4592142
94	0xbecefffa	-0.4042967
95	0x3f15e157	0.58546966
96	0xbdcb86e5	-0.099378385
97	0xbf8abd83	-1.0839084
98	0xbddb421c	-0.10705969
99	0x3e84a140	0.25904274
100	0xbf14adf7	-0.5807795
101	0xbeca4850	-0.39508295
102	0xbef394b5	-0.47574392
103	0x3e221cac	0.1583125
104	0x3f349428	0.7053857
105	0xbef4da0e	-0.47822613
106	0x3dfd1b29	0.12358696
107	0xbe9dc89a	-0.3081711
108	0x3d744ef4	0.059645608
109	0xbe37ebdd	-0.17961068
110	0xbe2e523c	-0.17023557
111	0xbdcf2909	-0.10115249
112	0xbe58fd02	-0.21190265
113	0xbdbe2a0f	-0.09285366
114	0x3f0f4d4e	0.5597733
115	0x3ee2b625	0.4427959
116	0x3ed47555	0.41495767
117	0x3e90d175	0.28284803
118	0x3ceb5c59	0.028730558
119	0x3d6363ff	0.055515286
120	0x3e995ff8	0.2995603
121	0xbba40360	-0.005005285
122	0x3df89cbb	0.12139269
123	0xbe64393b	-0.22287457
124	0xbeb9d9a6	-0.36298865
125	0xbda69b13	-0.08135047
126	0x3e582834	0.21109086
127	0xbe971fe5	-0.2951652
128	0x3e80cb70	0.2515521
129	0xbedbab63	-0.42904195
130	0x3ea5503f	0.32287785
131	0x3b884b28	0.00415935
132	0x3d4bcb0e	0.049754195
133	0xbe44a732	-0.19204405
134	0xbd9703d0	-0.07373774
135	0xbe763948	-0.24045289
136	0xbe773ee4	-0.24145085
137	0xbde3f6f0	-0.11131084
138	0x3ec74925	0.38922992
139	0xbdf30f0c	-0.11868104
140	0xbfac8819	-1.3479034
141	0x3c6a1811	0.014287964
142	0x3ea1a5ef	0.3157191
143	0x3dd405b8	0.10352653
144	0x3e92e14a	0.28687507
145	0x3deea189	0.11651904
146	0x3d9dbeaf	0.07702386
147	0x3e6e5ef6	0.23278412
148	0x3cdfd935	0.027325252
149	0xbf0ac6c8	-0.54209566
150	0xbeca6184	-0.39527524
151	0x3e506f2e	0.20354912
152	0xbee469ce	-0.44611973
153	0xbf0b9821	-0.54529005
154	0x3ecbc374	0.39797556
155	0xbb03689c	-0.0020051366
156	0xbf2ee11b	-0.68312234
157	0x3e34197b	0.17587845
158	0xbdae5f18	-0.085142314
159	0x3cb9a200	0.022660255
160	0xbe669245	-0.22516735
161	0xbe1e3a49	-0.15451922
162	0xbebadc68	-0.36496282
163	0xbe8b39a6	-0.2719242
164	0x3e8c9607	0.27458212
165	0x3e930d0f	0.287209
166	0xbdf37e6e	-0.11889349
167	0xbe29b0d1	-0.16571356
168	0x3ed5f65a	0.41789514
169	0xbd1ce7e4	-0.038307086
170	0xbf2f7942	-0.685444
171	0xbd98bce6	-0.074579045
172	0xbd9417ab	-0.07231077
173	0x3e582be3	0.21110491
174	0xbe0410c0	-0.12897015
175	0xbe5d1bbb	-0.2159261
176	0x3dc3e017	0.09564226
177	0xbea11e64	-0.314685
178	0xbe8a5ff5	-0.27026334
179	0xbeb6085d	-0.35553256
180	0xbebd88a6	-0.37018317
181	0x3f264b92	0.6495906
182	0x3b468d41	0.0030296596
183	0x3dadf177	0.084933214
184	0xbf478662	-0.77939427
185	0xbe2d54b3	-0.16926841
186	0xbeb1ea6a	-0.34749156
187	0x3d1434a9	0.036183033
188	0xbeb26ef1	-0.34850267
189	0x3e0603bd	0.13087364
190	0xbe828689	-0.25493267
191	0xbe0333a1	-0.12812664
192	0xbe2cd815	-0.16879304
193	0xbe196817	-0.14981113
194	0xbe8224a1	-0.2541857
195	0x3e36c0f1	0.17847039
196	0xbe84666b	-0.2585939
197	0x3db9c7d1	0.09071315
198	0x3e95fece	0.29295963
199	0x3e2441e9	0.16040768
200	0x3e0e8d3a	0.13921061
201	0x3ea24440	0.31692696
202	0x3ec7dfbc	0.39037883
203	0xbec0d888	-0.376652
204	0x3e7e521d	0.24836011
205	0xbe03d92b	-0.12875812
206	0xbcb8a055	-0.02253739
207	0x3e8b444a	0.27200538
208	0xbbede947	-0.007260475
209	0x3c93a3a9	0.018022375
210	0xbda51cef	-0.08062159
211	0x3cadd6a1	0.021220507
212	0xbe7ff51c	-0.24995846
213	0x3e94ade3	0.29038915
214	0xbe89acae	-0.26889557
215	0x3e5cc9b9	0.21561326
216	0x3e44021c	0.1914143
217	0xbec28b0f	-0.37996718
218	0x3e0a3ea5	0.1350046
219	0x3e84c9eb	0.259353
220	0x3eb9b7fa	0.36273175
221	0x3e61db01	0.220562
222	0xbdc40b8d	-0.09572516
223	0x3d9d3cee	0.07677637

gcn_layers.1.bias f4 [32]
0	0x3f46f316	0.7771467
1	0xbc212c90	-0.009837285
2	0x3e1d3c5f	0.15355061
3	0xbea68450	-0.3252282
4	0xbf47f5f9	-0.781097
5	0xbe61be62	-0.22045282
6	0xbd61fb87	-0.055171516
7	0x3e8c9a24	0.2746135
8	0xbce908ce	-0.028446581
9	0x3f275840	0.65369034
10	0x3eab80ec	0.33496797
11	0xbf2a6571	-0.6656104
12	0xbf4c6b1f	-0.79850954
13	0xbe8e886b	-0.27838454
14	0xbbd14c4c	-0.006387269
15	0xbe7005a3	-0.2343965
16	0xbd21895e	-0.039437644
17	0xbe5543a4	-0.20826584
18	0x3d7b7073	0.061386537
19	0x3f142431	0.57867724
20	0xbdd0dc93	-0.10198321
21	0xbe2eb842	-0.17062476
22	0x3f4f200a	0.8090826
23	0x3f27214f	0.652852
24	0xbf3620c0	-0.7114372
25	0xbf28e0f0	-0.6596823
26	0x3ef23bbf	0.47311208
27	0xbe9555a6	-0.29166907
28	0xbf533729	-0.8250604
29	0xbe6ef8e2	-0.23337129
30	0xbf39b5de	-0.7254313
31	0xbd3118e1	-0.043236617

gcn_layers.1.lin.weight f4 [32, 32]
0	0xbe74ae63	-0.23894648
1	0x3e327bb7	0.17430006
2	0x3dfc93bc	0.123328656
3	0xbe86eafd	-0.26351157
4	0xbd2d5fcd	-0.04232769
5	0xbe9da78e	-0.30791897
6	0x3d59f89b	0.053215604
7	0xbe186f72	-0.14886263
8	0x3e55a852	0.2086499
9	0xbe4099a8	-0.18808615
10	0xbc068e28	-0.008212604
11	0x3e54c0e7	0.20776711
12	0xbc68d040	-0.014209807
13	0xbe409793	-0.18807821
14	0x3e461644	0.19344431
15	0x3e07c3dc	0.13258308
16	0x3d0b1190	0.033952296
17	0xbe9ddeaf	-0.30833957
18	0x3e935543	0.28775987
19	0x3c9dc970	0.019261092
20	0x3e82854e	0.25492328
21	0xbd6062ab	-0.054781597
22	0xbf2022b4	-0.6255295
23	0xbe4c12c6	-0.19929036
24	0xbeaa9328	-0.33315396
25	0x3e72925a	0.23688641
26	0x3d7391b3	0.05946512
27	0xbc6d124d	-0.014469695
28	0xbe5bab98	-0.21452177
29	0xbe0f746d	-0.14009257
30	0x3da9cead	0.082913734
31	0x3d56ec90	0.052471697
32	0xbd2ed728	-0.042685658
33	0x3de78667	0.11304932
34	0x3c29f562	0.010373445
35	0x3d462d7b	0.048383217
36	0xbe3ff0c8	-0.18744195
37	0xbe760f43	-0.2402926
38	0x3e0a37d4	0.13497859
39	0xbe338cb0	-0.17534137
40	0xbd199dcd	-0.037504006
41	0xbea10554	-0.31449378
42	0x3e73d18d	0.23810406
43	0xbdb514bf	-0.08841848
44	0xbc99fa90	-0.018796235
45	0xbe7769a6	-0.24161395
46	0x3e0ecc8d	0.13945217
47	0xbd0483e9	-0.03235236
48	0xbe386837	-0.18008505
49	0xbe566c25	-0.20939691
50	0x3e9a1357	0.3009288
51	0xbe3ceffb	-0.1845092
52	0x3e2c9a13	0.1685565
53	0x3c032e83	0.008006695
54	0x3df3c5b7	0.119029455
55	0x3db9e1e6	0.0907629
56	0xbe908b8b	-0.28231463
57	0xbd90aa5e	-0.07063745
58	0x3dbe76ba	0.09299989
59	0xbe8dedd6	-0.27720517
60	0xbe3882f8	-0.1801871
61	0xbb83112f	-0.003999851
62	0x3e1a5a3f	0.15073489
63	0x3e1c4472	0.15260485
64	0x3c4116d4	0.011785228
65	0xbde40d3c	-0.11135337
66	0x3e912ee4	0.28356087
67	0x3dc202fe	0.09473227
68	0xbe170036	-0.14746174
69	0xbeae473c	-0.34038723
70	0xbe6d8c52	-0.23198059
71	0xbd8777aa	-0.06614621
72	0x3e3d17b7	0.18466078
73	0xbe214e33	-0.15752487
74	0x3e901bdd	0.28146258
75	0x3bd652a8	0.006540615
76	0xbe3db2ea	-0.18525282
77	0x3ecdad4b	0.40171275
78	0xbc8e3216	-0.017357867
79	0xbe474490	-0.19459748
80	0xbe314b1a	-0.17313805
81	0xbd6b815a	-0.057496406
82	0xbddc7539	-0.10764546
83	0xbde88c0e	-0.11354838
84	0xbee34f5b	-0.4439648
85	0x3e0e4ae4	0.13895756
86	0x3e6114c0	0.21980572
87	0xbe18d0f6	-0.14923462
88	0xbec52130	-0.38501883
89	0x3cf99352	0.030465756
90	0xbe2d4a39	-0.16922845
91	0xbd86e0af	-0.06585824
92	0x3e877597	0.264569
93	0xbdb63678	-0.08897108
94	0x3e198144	0.14990717
95	0x3e8e713e	0.27820772
96	0x3ce4926b	0.027901849
97	0xbe7aa331	-0.24476315
98	0xbed87ca6	-0.422826
99	0xbe6ee035	-0.23327716
100	0xbd9be93d	-0.07612846
101	0x3e6447ed	0.22293063
102	0xbed51d40	-0.41623878
103	0x3db25690	0.08707917
104	0xbeb6fadd	-0.35738268
105	0xbe529249	-0.20563616
106	0xbe820d60	-0.2540083
107	0xbf52a7ac	-0.82287097
108	0x3e861241	0.26185802
109	0x3e105733	0.14095764
110	0x3ebd89ed	0.37019292
111	0xbf3c9e9a	-0.73679507
112	0xbeddcb84	-0.43319333
113	0xbe8fe121	-0.28101447
114	0x3e9ea0b5	0.30981985
115	0xbe3552bb	-0.1770734
116	0xbefa1c41	-0.4884968
117	0x3d98f4f9	0.074686
118	0x3e6818ae	0.22665665
119	0x3d39ccbf	0.045361277
120	0xbd0284f5	-0.03186508
121	0x3e79bb8d	0.24387951
122	0x3e73c111	0.23804118
123	0xbd1ceb4c	-0.038310334
124	0xbf584c13	-0.8449108
125	0xbe5925a0	-0.21205759
126	0xbaf48c5a	-0.0018657551
127	0xbf0be566	-0.5464691
128	0xbf1bb30c	-0.6082008
129	0xbeb22896	-0.3479659
130	0xbde9413d	-0.11389396
131	0x3e261caa	0.16221872
132	0x3e343e5e	0.17601916
133	0xbecb71fb	-0.39735398
134	0xbe0e4d84	-0.13896757
135	0x3e8b4ffb	0.27209458
136	0x3a73c69f	0.0009299311
137	0xbe032af9	-0.12809362
138	0xbb70bf72	-0.0036735204
139	0xbe92505b	-0.2857693
140	0xbe28c59f	-0.16481636
141	0xbe7bff32	-0.24609068
142	0x3dbdeaa2	0.09273268
143	0x3d9ab666	0.07554321
144	0x3dd9eb80	0.10640621
145	0x3e73d6d7	0.23812424
146	0xbe26baf3	-0.16282253
147	0xbe3efe3a	-0.18651667
148	0xbe9f1e79	-0.31077936
149	0xbd5230e5	-0.05131616
150	0x3e5d121d	0.21588941
151	0x3c866753	0.01640669
152	0xbddc7480	-0.10764408
153	0xbda825bd	-0.08210323
154	0xbe335393	-0.1751235
155	0xbeb55155	-0.35413614
156	0xbe8162b1	-0.25270608
157	0x3d323976	0.04351183
158	0x3e4b4382	0.19849971
159	0x3e255d26	0.16148815
160	0x3e5ce129	0.21570267
161	0xbcadcee7	-0.021216823
162	0x3d083e7e	0.033262722
163	0x3ccbd3a0	0.024881184
164	0xbf14c2a8	-0.5810952
165	0xbe88e40c	-0.26736486
166	0xbe67b944	-0.22629267
167	0x3d3bb1d8	0.045823902
168	0x3dc5823b	0.0964398
169	0xbd563312	-0.0522948
170	0x3ddaecf9	0.1068973
171	0xbdd127d2	-0.10212673
172	0x3db98aa0	0.09059644
173	0x3d353abe	0.044245474
174	0x3e0a5565	0.13509138
175	0xbe4150f1	-0.18878533
176	0xbdce8984	-0.10084823
177	0x3e3d0e80	0.18462563
178	0xbe552a98	-0.2081703
179	0x3d636ab8	0.055521697
180	0x3c0ff94c	0.008787464
181	0xbe894cdb	-0.2681645
182	0xbd24118c	-0.040055797
183	0xbd9880e6	-0.074464604
184	0x3e633b9b	0.22190706
185	0xbdc38b12	-0.0954801
186	0x3d21a583	0.039464485
187	0xbea7deb3	-0.32787094
188	0x3cab714f	0.020928053
189	0xbe5618e1	-0.20907928
190	0xbe41c861	-0.18924095
191	0xbe2ed337	-0.1707276
192	0x3e8a8593	0.27055034
193	0xbe813b79	-0.25240687
194	0xbe94ab25	-0.29036823
195	0xbe721a5e	-0.23642871
196	0x3d94c350	0.072638154
197	0xbe0d73b0	-0.13813663
198	0x3e0967db	0.13418524
199	0x3e6806ee	0.22658893
200	0xbe9c2b80	-0.30501938
201	0x3ca95f28	0.020675257
202	0xbe04358a	-0.12911049
203	0xbe5aace1	-0.2135501
204	0xbc31b640	-0.010846674
205	0xbe94760d	-0.28996316
206	0xbdc9e178	-0.09857458
207	0xbe1f959a	-0.15584412
208	0xbe3a5281	-0.18195535
209	0xbc6a48a6	-0.014299547
210	0xbe3a592f	-0.18198083
211	0xbe42a56a	-0.19008413
212	0xbe778bd2	-0.24174431
213	0xbdfd6e75	-0.12374584
214	0xbe926612	-0.28593498
215	0xbe720e1d	-0.23638196
216	0xbe91abae	-0.28451294
217	0x3d2eade7	0.042646315
218	0xbd74c6b5	-0.059759814
219	0xbd070410	-0.03296286
220	0x3e55805b	0.20849745
221	0x3e6e94eb	0.23298995
222	0xbe96fa74	-0.29487956
223	0xbe09a629	-0.13442291
224	0xbe366cb9	-0.17814912
225	0xbe75e001	-0.24011232
226	0xbd85e3a4	-0.0653756
227	0x3eac439d	0.33645335
228	0xbe3ca2b4	-0.18421441
229	0x3e13ea1e	0.14444777
230	0xbc1d22b8	-0.009590797
231	0x3dddca80	0.108296394
232	0xbe83f05d	-0.2576932
233	0xbdb6041d	-0.08887503
234	0xbcd594dc	-0.026071958
235	0x3e96a828	0.29425168
236	0x3b9cb9c0	0.0047828853
237	0xbe0edabd	-0.1395063
238	0x3e1d3ca2	0.15355161
239	0x3d66cc28	0.056347042
240	0x3dfa9c9f	0.12236904
241	0xbd2c4917	-0.04206189
242	0x3e66fc63	0.22557215
243	0xbe34a358	-0.17640436
244	0x3e119c1f	0.14219712
245	0xbd9b43e1	-0.07581306
246	0xbbb1da28	-0.0054276176
247	0x3e4b86f1	0.19875695
248	0xbe72e9b5	-0.23721965
249	0xbe0ab977	-0.13547312
250	0x3e341e4c	0.17589682
251	0x3d18abf3	0.03727336
252	0x3d9f369d	0.077740885
253	0x3e2c6d27	0.16838513
254	0xbe43757b	-0.19087784
255	0xbe8f00e3	-0.27930364

rnn.weight_ih_l0 f4 [192, 32]
0	0x3cb8fbc6	0.022580992
1	0x3df27f4a	0.11840685
2	0x3e0102db	0.12598746
3	0x3c14be5e	0.00907859
4	0x3d49fcb2	0.049313255
5	0x3d869c7a	0.06572814
6	0xbcf3f688	-0.029780641
7	0x3db05ffd	0.08612058
8	0x3d525f63	0.0513605
9	0x3dbdd251	0.0926863
10	0x3dcb8149	0.099367686
11	0x3d871dc8	0.06597477
12	0x3d59f18f	0.053208884
13	0x3d893d11	0.067011006
14	0x3cba6fc5	0.022758374
15	0x3ce74366	0.02823038
16	0x3cc8f82d	0.024532402
17	0xbcfc8cd5	-0.030828873
18	0xbd997bfc	-0.07494351
19	0x3b5dcfd2	0.0033845794
20	0x3d836df0	0.06417453
21	0x3e0fc58d	0.14040203
22	0x3e09a3d8	0.13441408
23	0x3dbe9de2	0.093074575
24	0xbca215a3	-0.019785708
25	0xbb729dd6	-0.0037020347
26	0x3cada822	0.021198336
27	0xbdc57f58	-0.096434295
28	0x3b94a651	0.004536428
29	0x3e18621c	0.14881176
30	0x3da9b122	0.082857385
31	0xbdab0a06	-0.08351521
32	0x3da9baee	0.08287607
33	0xbda2eff8	-0.07955927
34	0x3d4d2d1b	0.050091844
35	0x3df2d89a	0.1185772
36	0x3c92f127	0.017937256
37	0x3cf73593	0.030176913
38	0x3de38b00	0.111104965
39	0xbcb3cf27	-0.021949364
40	0x3d1f6a18	0.03891954
41	0x3dbe8390	0.09302437
42	0xbd599d65	-0.05312862
43	0x3d969e95	0.07354466
44	0xbd995f83	-0.074889205
45	0x3ce28ed2	0.027655993
46	0xbda60af2	-0.081075564
47	0xbde2d686	-0.11076073
48	0xbcaed66c	-0.021342479
49	0x3d942bdf	0.0723493
50	0x3cb2126c	0.0217373
51	0x3d2743e0	0.040836215
52	0xbbf2d9f3	-0.0074112355
53	0x3dfc558e	0.12321006
54	0x3e386ba9	0.18009819
55	0x3e1e33a6	0.1544939
56	0x3bedeb55	0.00726072
57	0x3d972884	0.073807746
58	0x3e02ac35	0.12761004
59	0x3da407f2	0.08009328
60	0x3dcd000e	0.10009776
61	0x3c8fbb44	0.01754535
62	0xbc8a25be	-0.0168637
63	0xbd05dc06	-0.032680534
64	0x3c8493ff	0.016183851
65	0x3d1784a0	0.036991715
66	0x3e0481c6	0.1294013
67	0x3d382a6d	0.044962335
68	0x3d6c5134	0.05769463
69	0xbc6fdda5	-0.0146402465
70	0xbd802505	-0.06257061
71	0x3e1939da	0.14963475
72	0xbddf8c2c	-0.109154075
73	0xbccb0348	-0.024781838
74	0x3cb7ff1d	0.022460515
75	0xbe9708b9	-0.29498842
76	0x3cafa82f	0.0214425
77	0x3d60ab6f	0.05485099
78	0xbde54a4f	-0.11195814
79	0x3d96cdeb	0.073634945
80	0xbed3b99e	-0.41352552
81	0xbd5a0991	-0.05323178
82	0xbddb05a1	-0.10694433
83	0xbd0179ac	-0.031610176
84	0xbd09ec99	-0.033672903
85	0xbe4a3cdd	-0.1974978
86	0xbe0774b7	-0.13228117
87	0xbe2acc11	-0.16679408
88	0xbe237c8a	-0.15965477
89	0x3d649ddd	0.055814613
90	0xbe47703d	-0.1947641
91	0x3a8bd05a	0.0010666952
92	0xbe300af9	-0.17191686
93	0x3dd150c3	0.10220482
94	0xbd6016e4	-0.05470933
95	0x3d5d478d	0.054023314
96	0xbdda700f	-0.10665905
97	0xbdc2dce9	-0.095147915
98	0x3e3aca95	0.18241341
99	0x3decb647	0.11558204
100	0x3e5a9ef6	0.21349701
101	0xbd122fc4	-0.035690084
102	0x3d2f8a7c	0.04285668
103	0x3dea171f	0.11430191
104	0xbdc00c76	-0.09377377
105	0x3c4e9dc2	0.012610855
106	0x3cdb9673	0.026805138
107	0x3d498d96	0.049207292
108	0x3e075e99	0.1321968
109	0x3d51f159	0.051255558
110	0x3d8c8922	0.068620935
111	0x3d709615	0.05873688
112	0x3d06a032	0.032867618
113	0xbdcca0d3	-0.09991612
114	0xbd04f988	-0.032464534
115	0xbc97d632	-0.018534753
116	0x3c8bb6e2	0.017054979
117	0xbd9aca5f	-0.075581305
118	0x3c68fc0b	0.014220248
119	0x3dfdca50	0.12392104
120	0xbc3478ea	-0.011015156
121	0xbc33bb8a	-0.010970006
122	0xbd1a19a9	-0.037622128
123	0xbd523b82	-0.051326282
124	0xb89d4aa1	-7.500244e-05
125	0xbcf8ea07	-0.03038503
126	0xbd7f4bbe	-0.062328093
127	0xbd773c60	-0.060360312
128	0xbdef07a0	-0.11671376
129	0xbd63138d	-0.055438567
130	0x3e22f3bb	0.15913288
131	0xbdd1b4a5	-0.10239533
132	0xbbe6ba22	-0.0070412317
133	0xbd830f16	-0.06399362
134	0x3b72f6c0	0.0037073344
135	0xbd3b0348	-0.045657426
136	0x3ded1431	0.11576117
137	0xbe002b4a	-0.12516513
138	0x3dcbe7f8	0.09956354
139	0xbccae479	-0.024767147
140	0xbde507da	-0.11183138
141	0xbde90462	-0.11377789
142	0xbc83d050	-0.016090542
143	0x3e090f79	0.13384809
144	0xbc9ac382	-0.018892054
145	0x3de053a1	0.10953451
146	0x3de680ee	0.1125506
147	0xbdf59960	-0.119921446
148	0xbd81e24c	-0.06341991
149	0x3d17539d	0.036944974
150	0xbdf5b7e2	-0.119979635
151	0x3caa65f4	0.020800568
152	0x3d9ec3f6	0.0775222
153	0x3d70d228	0.05879417
154	0xbe2da395	-0.16956933
155	0x3db841b6	0.08996908
156	0x3d53a36a	0.051669516
157	0x3cd68bfc	0.026189797
158	0xbcbd4136	-0.023102384
159	0x3d6f5645	0.058431882
160	0x3d3962e2	0.045260318
161	0xbd497e58	-0.049192756
162	0x3e023db2	0.12718847
163	0x3d819f08	0.06329161
164	0xbd52cf34	-0.051467136
165	0xbcaf9e4c	-0.021437787
166	0x3ae5eb00	0.0017541349
167	0x3d295960	0.041345
168	0xbcaa1d4f	-0.020765929
169	0xbda7598a	-0.08171375
170	0xbd12fd25	-0.03588595
171	0x3e644434	0.22291642
172	0x3e6cbf6e	0.231199
173	0x3c41516f	0.0117992
174	0xbdc04899	-0.09388847
175	0xbdacade7	-0.08431607
176	0x3daeca61	0.085346945
177	0xbd3c22b6	-0.04593154
178	0x3e1766e3	0.14785342
179	0xbe4bca13	-0.19901304
180	0xbdd041db	-0.10168811
181	0x3d643f73	0.055724572
182	0xbe1ed5d0	-0.1551125
183	0xbe452f70	-0.19256377
184	0x3d17bc36	0.037044726
185	0x3e287e87	0.16454516
186	0xbe2fa7f1	-0.17153908
187	0xbca2306d	-0.019798482
188	0x3e9aadf6	0.30210847
189	0x3df42dac	0.11922774
190	0xbc5968be	-0.013269601
191	0xbe341e43	-0.17589669
192	0xbdec424c	-0.115360826
193	0x3bdda743	0.006764324
194	0x3d1d7463	0.038441073
195	0x3caf0dba	0.02136885
196	0xbdbefffd	-0.0932617
197	0xbe13a853	-0.1441968
198	0x3d916bdc	0.07100651
199	0xbd77f3bc	-0.060535178
200	0x3d09f3c8	0.033679754
201	0x3d87d42d	0.06632266
202	0x3def1f29	0.11675865
203	0xbe6169cf	-0.22013019
204	0xbd9354d3	-0.07193913
205	0xbcc88074	-0.024475314
206	0x3e5de4a7	0.21669255
207	0x3db97656	0.09055774
208	0xbd9b49ec	-0.07582459
209	0xbdd3a55e	-0.10334276
210	0xbde9295f	-0.11384844
211	0x3e2a465c	0.16628402
212	0x3d7ce1d9	0.061738823
213	0x3e0be1c5	0.13660343
214	0x3c54849b	0.012971069
215	0xbda93458	-0.08261937
216	0x3d9318ef	0.0718249
217	0xbe285748	-0.16439545
218	0xbcb3a42b	-0.021928867
219	0x3d319c86	0.043362163
220	0x3c190f27	0.0093419915
221	0x3db95ede	0.090512976
222	0x3c7ad99b	0.01531067
223	0x3dbdeac1	0.092732914
224	0x3d934a16	0.07191865
225	0xbdc89778	-0.09794515
226	0xbdeead57	-0.11654156
227	0x3d2d970e	0.042380385
228	0x3d4fe26b	0.05075304
229	0xbdb7fa29	-0.08983261
230	0xbdddd48b	-0.10831555
231	0xbdcc3c3c	-0.09972426
232	0xbde8f367	-0.1137455
233	0xbc9d876e	-0.019229617
234	0x3e3df212	0.18549374
235	0x3dc7aa83	0.097493194
236	0x3db5811a	0.08862515
237	0x3d9ca18c	0.07648
238	0x3e16efb4	0.14739877
239	0xbda97980	-0.082751274
240	0x3e81e2df	0.253684
241	0xbd4ef859	-0.05052981
242	0x3dcfc214	0.10144439
243	0xbe214800	-0.15750122
244	0x3d8bf9de	0.06834768
245	0x3dcaf481	0.09909917
246	0x3df08120	0.11743379
247	0x3e1848af	0.14871477
248	0xbcb60137	-0.022217376
249	0xbddcc2e5	-0.10779361
250	0x3ddebe18	0.10876101
251	0x3dcba1b6	0.09942953
252	0xbdfdf6b7	-0.12400573
253	0xbd42b5fd	-0.04753684
254	0x3e80a45d	0.251254
255	0xbd24fbf1	-0.040279333

rnn.weight_hh_l0 f4 [192, 64]
0	0xbd750cd8	-0.059826702
1	0x3e3a1fe8	0.18176234
2	0x3af4b56f	0.0018669794
3	0x3e3076d9	0.17232837
4	0x3e3cd4da	0.18440571
5	0xbe18740c	-0.14888018
6	0xbd455f2e	-0.048186474
7	0x3dc91154	0.09817758
8	0x3c1b252e	0.009469314
9	0xbcc53677	-0.024073822
10	0xbdb5b02e	-0.08871494
11	0xbd5a2e29	-0.053266678
12	0x3de19925	0.11015538
13	0x3c770b3c	0.015078362
14	0x3da9ca40	0.08290529
15	0xbdf22f3e	-0.11825417
16	0x3e06868b	0.13137262
17	0xbd25d693	-0.040487837
18	0x3df2bb0c	0.118520826
19	0x3e25296e	0.16129085
20	0xbdf6cefc	-0.12051198
21	0xbe653fbe	-0.22387597
22	0x3de4eb3b	0.11177679
23	0xbd4d2ac4	-0.050089613
24	0x3e478854	0.19485599
25	0xbdd99b61	-0.10625339
26	0xbda021b7	-0.078189306
27	0x3d9746f2	0.073865786
28	0xbe429ab7	-0.19004332
29	0xbd04c5a1	-0.032415036
30	0xbbdb5f8e	-0.0066947406
31	0xbdff0556	-0.124521896
32	0x3e4be6da	0.19912282
33	0x3dc0fca6	0.09423189
34	0x3d09bc76	0.033626996
35	0xbe129787	-0.14315616
36	0x3d8b5e70	0.06805122
37	0x3e013dbf	0.1262121
38	0x3aa7458b	0.0012761814
39	0xbe1c869c	-0.15285724
40	0x3d971667	0.0737732
41	0x3da89868	0.08232194
42	0x3d1c6665	0.03818359
43	0x3d588835	0.052864272
44	0x3d75753b	0.059926253
45	0x3d38590f	0.045006808
46	0x3e1f286d	0.15542765
47	0x3de9639f	0.11395954
48	0xbe25ba1c	-0.16184276
49	0x3e12339f	0.14277504
50	0x3ce78432	0.028261278
51	0x3e13f942	0.14450553
52	0xbcee8b0a	-0.029119033
53	0x3dbc1516	0.09183709
54	0x3de66476	0.1124963
55	0x3df84356	0.12122218
56	0x3e2828c1	0.16421796
57	0xbe0b7160	-0.13617468
58	0xbe0377fd	-0.1283874
59	0x3e24dfc0	0.16100979
60	0xbc89a7b9	-0.01680361
61	0x3abe3735	0.0014512303
62	0x3c396e54	0.011317808
63	0x3cd778de	0.026302751
64	0xbddaf5a8	-0.106913865
65	0x3e0041c3	0.12525086
66	0x3c5e77b5	0.013578345
67	0xbd230488	-0.039799243
68	0x3dfb0f4e	0.122587785
69	0x3c697ee0	0.014251441
70	0x3cd9c7b3	0.026584482
71	0x3dd22611	0.10261167
72	0x3b74b0d9	0.0037336855
73	0x3e2c125f	0.16803883
74	0xbdda3a7e	-0.10655688
75	0xbdb38ec9	-0.087674685
76	0x3dab0c39	0.08351941
77	0xbdf1ec42	-0.11812641
78	0xbcc1cc3d	-0.023656959
79	0xbdb6767e	-0.08909319
80	0x3e3e23c3	0.1856833
81	0x3deaa35a	0.11456938
82	0xbd4f7ab4	-0.05065413
83	0x3e2df524	0.16988045
84	0x3d285b66	0.04110279
85	0x3d667bad	0.05627029
86	0x3dbc05b5	0.09180776
87	0x3d4d841c	0.050174817
88	0xbd0e39ff	-0.034723278
89	0xbe143310	-0.14472604
90	0xbd33ccce	-0.04389649
91	0x3cd0eec8	0.025504485
92	0xbe1611fc	-0.14655298
93	0x3d278e9a	0.04090748
94	0x3d1d81b9	0.03845379
95	0xbe3db1bb	-0.1852483
96	0x3ddc1212	0.10745634
97	0xbdad80b1	-0.084718116
98	0x3c83112c	0.0159994
99	0xbe18bd26	-0.14915904
100	0x3d15da8b	0.036585372
101	0xbd53f729	-0.051749382
102	0x3d1e7d6e	0.038693838
103	0xbdcd32d8	-0.10019463
104	0x3b89478b	0.004189437
105	0xbd56c7ec	-0.052436754
106	0xbe1de85c	-0.1542067
107	0x3cdc02af	0.026856748
108	0xbd8fa527	-0.07013922
109	0x3e2d6bd2	0.16935661
110	0x3e3c7e23	0.18407492
111	0x3d29cd58	0.041455597
112	0xbd1b4303	-0.037905704
113	0xbd1eb0fe	-0.03874301
114	0xbd3a51bc	-0.045488104
115	0x3e0cd313	0.13752393
116	0x3caed72f	0.021342842
117	0x3e30634c	0.17225379
118	0x3d39c3bd	0.045352686
119	0x3d131e26	0.035917424
120	0xbdc159ed	-0.0944098
121	0xbd79a381	-0.060946945
122	0xbe1516ad	-0.14559431
123	0x3de494e6	0.111612126
124	0x3d204625	0.039129395
125	0xbdb985f9	-0.090587564
126	0xbe1139ea	-0.14182249
127	0x3b8dcf3d	0.0043276832
128	0x3ca1d933	0.019756889
129	0x3c241587	0.010014898
130	0xbe089f97	-0.13342129
131	0x3c8b13a1	0.016977133
132	0xbcd6f432	-0.026239488
133	0x3de15234	0.11002007
134	0xbdd45510	-0.10367787
135	0xbd48764f	-0.048940953
136	0xbe17fb4b	-0.14841954
137	0x3dac1bbf	0.0840373
138	0xbdd65432	-0.10465278
139	0x3d6c810a	0.05774025
140	0xbdeaa2b0	-0.114568114
141	0xbd9b14ff	-0.07572364
142	0xbd193ad2	-0.03740961
143	0x3d13ee42	0.036115892
144	0xbc8e5b37	-0.017377479
145	0xbe22036f	-0.15821622
146	0xbe4b3803	-0.19845586
147	0xbd29f544	-0.04149367
148	0x3d481894	0.048851565
149	0x3e0d01bd	0.13770194
150	0xbe0db555	-0.13838704
151	0xbc888f59	-0.016669916
152	0xbca91020	-0.020637572
153	0x3e18a2fa	0.1490592
154	0x3d86ba2e	0.0657848
155	0xbdf74ff6	-0.12075798
156	0x3dca4945	0.09877256
157	0x3d3d2872	0.04618115
158	0x3dd1dd96	0.10247342
159	0xbd44703b	-0.047958594
160	0xbd33e7a6	-0.04392209
161	0x3dc4be2d	0.09606586
162	0x3db335fd	0.08750532
163	0xbd2fe804	-0.042945877
164	0x3befbfb7	0.0073165554
165	0xbc439128	-0.011936463
166	0xbdaf96ca	-0.085736826
167	0x3d7cc138	0.061707705
168	0xbe6facb7	-0.23405729
169	0xbd41c1cc	-0.04730396
170	0xbdb0e288	-0.086369574
171	0xbdd191b2	-0.10232867
172	0x3d00daed	0.031458784
173	0x3e6fb990	0.2341063
174	0xbdcc91d7	-0.09988754
175	0x3d08e03f	0.033416983
176	0xbd0519e7	-0.032495406
177	0xbdec2b66	-0.11531715
178	0xbe09334b	-0.13398473
179	0xbcfc8ec5	-0.030829797
180	0x3d94cdba	0.07265802
181	0x3d9bcf6a	0.076079205
182	0xbba9b00e	-0.005178458
183	0xbd271f9b	-0.040801626
184	0xbd52c661	-0.05145872
185	0xbc044f45	-0.00807554
186	0xbce76187	-0.028244747
187	0xbdabc035	-0.0838627
188	0xbbc9dc4f	-0.006160296
189	0xba489905	-0.0007652196
190	0x3c86221d	0.016373688
191	0x3e904a2b	0.28181586
192	0xbe3f6f0e	-0.18694708
193	0xbe96bf6f	-0.29442927
194	0x3dbb1cde	0.09136365
195	0x3e0c9746	0.13729581
196	0x3e4d6d9d	0.20061345
197	0xbdac7c2c	-0.084221214
198	0x3e0345c9	0.1281959
199	0xbdfdda66	-0.12395172
200	0x3d755825	0.059898514
201	0x3d7d85bd	0.06189512
202	0xbc96e4a6	-0.018419575
203	0xbad7a459	-0.0016452178
204	0x3e7da294	0.2476905
205	0xbdba8d64	-0.09108999
206	0x3d6ece09	0.05830196
207	0xbe1b80e6	-0.1518589
208	0x3cea21c0	0.028580546
209	0xbd90d7c8	-0.07072407
210	0xba713c60	-0.0009202417
211	0xbda0b67e	-0.078473076
212	0xbdc7408d	-0.09729109
213	0xbb393de3	-0.0028265647
214	0x3dd3f4bc	0.10349414
215	0x3da25304	0.0792599
216	0xbcf183b5	-0.029481748
217	0x3c1453bb	0.009053166
218	0xba1f1c28	-0.0006069564
219	0x3cd0d5c0	0.025492549
220	0xbe1ed9f1	-0.15512826
221	0x3db6e8c1	0.08931113
222	0x3e05e16b	0.13074271
223	0xbe195738	-0.14974678
224	0xbe08bec6	-0.13354024
225	0xbe113cb5	-0.14183314
226	0xbe0baa5c	-0.13639206
227	0xbdb09d75	-0.086237825
228	0x3cc259a3	0.023724383
229	0x3daf144a	0.08548792
230	0xbe1cb817	-0.153046
231	0xbdf9f77f	-0.12205409
232	0x3e3ea5b8	0.18617904
233	0x3da201d4	0.07910505
234	0xbd2921a1	-0.041291837
235	0x3d8a5505	0.067544974
236	0xbe5b149c	-0.2139458
237	0xbd306e24	-0.04307379
238	0x3e378f6b	0.17925803
239	0x3e329c10	0.17442346
240	0xbdc85b97	-0.097830944
241	0x3cb5c156	0.022186916
242	0x3e3c2ff4	0.18377668
243	0x3d4cd1f7	0.050004926
244	0xbdd7a665	-0.10529784
245	0x3e0bcf46	0.13653287
246	0x3e00cf0c	0.12578982
247	0xbde4a0c9	-0.1116348
248	0x3da263db	0.07929202
249	0xbdb7b9c8	-0.08970982
250	0xbe05a01a	-0.13049355
251	0xbcabc650	-0.020968586
252	0xbe6904ea	-0.22755781
253	0xbd4f6bed	-0.050640035
254	0xbdafb6f8	-0.085798204
255	0x3d8703f6	0.06592552

rnn.bias_ih_l0 f4 [192]
0	0x3cd4cdb2	0.02597699
1	0x3d2908a7	0.041268017
2	0xbd73eff4	-0.05955501
3	0x3e332462	0.17494348
4	0xbd23f858	-0.04003176
5	0x3d791308	0.060809165
6	0x3bf5b0f2	0.0074979
7	0x3e6ef91f	0.2333722
8	0xbd98c321	-0.07459093
9	0x3d4e331c	0.05034171
10	0x3dbda6bb	0.09260317
11	0xbcca0515	-0.024660626
12	0x3c69fcf3	0.014281499
13	0x3e10a289	0.14124502
14	0x3e0fea88	0.1405431
15	0x3da4d0c1	0.08047629
16	0x3dd2f380	0.1030035
17	0x3c40d086	0.011768466
18	0xbbcb0177	-0.006195243
19	0xbe348b59	-0.17631282
20	0x3d4e37db	0.050346237
21	0x3dfb7260	0.12277675
22	0x3d770bc3	0.06031395
23	0x3e061a6e	0.1309602
24	0x3d997a48	0.074940264
25	0xbdd6412b	-0.104616486
26	0xbc5c1df0	-0.013434872
27	0x3e053708	0.13009274
28	0xbc58c4da	-0.013230527
29	0x3da356ae	0.07975517
30	0x3dd25adb	0.102712356
31	0xbc6e080f	-0.0145282885
32	0x3dbcc288	0.092167914
33	0x3c95014a	0.018189091
34	0xbe27214c	-0.16321295
35	0xbdf2a657	-0.11848133
36	0x3e502d2b	0.2032973
37	0xbd5510e5	-0.052018065
38	0x3e18e291	0.14930178
39	0xbe09a69b	-0.13442461
40	0xbe0277c7	-0.12741004
41	0x3e0106f2	0.12600306
42	0xbd6355a9	-0.055501614
43	0x3cc64a8d	0.02420547
44	0x3d27c3b7	0.040958133
45	0x3e3468ba	0.17618075
46	0x3d1b4288	0.037905246
47	0xbde293b4	-0.110633284
48	0x3c658013	0.014007586
49	0x3e0b47b7	0.13601576
50	0xbdfe9432	-0.1243061
51	0x3e0fa009	0.14025892
52	0x3d559e43	0.052152883
53	0x3dc4cfd3	0.09609952
54	0xbc2c8afa	-0.0105311815
55	0xbd070c2c	-0.032970592
56	0x3da32c29	0.07967407
57	0x3c8f7d1b	0.01751571
58	0xbd34d452	-0.044147797
59	0x3ca7da91	0.020489963
60	0xbd36fb88	-0.044673473
61	0x3e251fe6	0.1612545
62	0xbc7e9b86	-0.015540009
63	0x3e34d09a	0.176577
64	0xbe1a76c8	-0.15084374
65	0xbe91e5bf	-0.28495595
66	0xbda9cea2	-0.08291365
67	0x3cfec9fe	0.031102177
68	0xbdbdcaf6	-0.09267227
69	0xbe213c30	-0.15745616
70	0x3d9ff7af	0.07810914
71	0x3f08e7eb	0.5347888
72	0xbd921020	-0.07131982
73	0xbe4352cc	-0.19074553
74	0x3c06aab9	0.008219414
75	0xbe06b644	-0.13155466
76	0x3bf8baa0	0.007590607
77	0x3d67dce9	0.05660716
78	0xbdbdab3d	-0.09261177
79	0x3cfd8452	0.030946884
80	0xbe0020fa	-0.1251258
81	0xbe174820	-0.14773607
82	0x3e90aab1	0.28255227
83	0xbeb7a67b	-0.35869202
84	0x3c136b63	0.008997771
85	0xbd989bb3	-0.07451572
86	0x3da2ea13	0.07954802
87	0xbc6c9fb9	-0.014442378
88	0xbe2954c5	-0.16536243
89	0x3f5c1abb	0.8597829
90	0xbdf8c28d	-0.121464826
91	0xbdc4384f	-0.095810525
92	0xbc980051	-0.018554838
93	0xbe82591a	-0.25458604
94	0x3d462d33	0.04838295
95	0xbe153df5	-0.14574416
96	0xbe26ed8e	-0.16301557
97	0x3f0b81f9	0.544952
98	0xbc9fcef2	-0.019507859
99	0x3c58cd9a	0.013232613
100	0x3ca942d4	0.020661749
101	0x3f269740	0.6507454
102	0x3e19dedb	0.15026419
103	0x3c1b1bd5	0.009467085
104	0x3f1426f5	0.57871944
105	0x3df40d74	0.119166285
106	0xbda8ce78	-0.08242506
107	0xbc1c3225	-0.00953344
108	0x3f436b17	0.7633528
109	0x3db20396	0.0869209
110	0xbe18f13b	-0.14935772
111	0xbdd53f02	-0.104124084
112	0x3ddae88a	0.106888846
113	0xbe0d6842	-0.13809302
114	0x3f44d917	0.7689375
115	0xbdf2152a	-0.11820443
116	0xba88cdd8	-0.0010437323
117	0x3bd75375	0.006571228
118	0xbd98c708	-0.07459837
119	0x3f376253	0.71634406
120	0x3f2c4f9d	0.6730898
121	0x3c2f856e	0.010712964
122	0x3f20db8a	0.6283499
123	0x3c4b89f3	0.012423026
124	0x3f182a2f	0.5943937
125	0x3d2a4edd	0.041579116
126	0xbd5cc119	-0.05389509
127	0xbd1a159e	-0.037618272
128	0xbd7479e9	-0.059686575
129	0x3e22cc55	0.15898259
130	0x3daecd30	0.0853523
131	0x3db07687	0.08616357
132	0x3e8c81a2	0.27442652
133	0x3c17d55c	0.009267177
134	0x3d78d4a4	0.060749665
135	0xbe0236b8	-0.12716186
136	0x3f141a10	0.5785227
137	0x3e699b0a	0.22813049
138	0xbe15fe48	-0.14647782
139	0xbdefbb99	-0.11705703
140	0xba884f01	-0.0010399522
141	0xbde20d98	-0.11037749
142	0x3e3c190e	0.18368933
143	0xbf05a867	-0.52210087
144	0xbd6a11d9	-0.057145927
145	0x3eb7fc11	0.359345
146	0xbde7702a	-0.113006905
147	0xbc1ad4e8	-0.009450175
148	0xbf26917f	-0.6506576
149	0xbef6bbdd	-0.48190203
150	0xbc86244e	-0.016374733
151	0x3e8316fe	0.2560348
152	0x3efbf2fd	0.49208823
153	0x3d7de291	0.06198365
154	0xbeb90917	-0.36139748
155	0x3d9137d2	0.07090725
156	0x3d50112b	0.050797623
157	0x3e4633ee	0.19355747
158	0x3c32ce40	0.010913432
159	0x3d1a21fd	0.03763007
160	0x3ea6f7f6	0.32611054
161	0xbdbbc897	-0.09169119
162	0x3d3944bf	0.045231577
163	0xbbefc65a	-0.0073173465
164	0x3e0a77ba	0.13522235
165	0x3e25bac3	0.16184525
166	0x3d016b6b	0.031596582
167	0x3d06e78d	0.032935668
168	0x3e12a638	0.1432122
169	0xbde046ad	-0.1095098
170	0xbdcbcd67	-0.09951287
171	0x3ca9112e	0.020638075
172	0xbe07fb42	-0.13279441
173	0x3dc9f139	0.09860463
174	0x3c7a26ab	0.015268008
175	0x3ce2c900	0.027683735
176	0xbf1b7620	-0.6072712
177	0x3f1a2bc7	0.6022305
178	0xbc8400a1	-0.016113581
179	0x3e8df44e	0.27725452
180	0xbedfccdc	-0.43710983
181	0x3e12801a	0.1430668
182	0x3d36a4eb	0.04459087
183	0xbd0bba01	-0.034112934
184	0x3e4e33e9	0.2013699
185	0xbf19a0e5	-0.6001113
186	0x3d4a2c07	0.049358394
187	0xbd4eeb18	-0.05051717
188	0xbd9a038d	-0.075202085
189	0x3ef44a69	0.4771302
190	0xbe62c16b	-0.22144096
191	0xbe6f9a13	-0.23398618

rnn.bias_hh_l0 f4 [192]
0	0x3dd63520	0.104593515
1	0x3e1110b9	0.14166535
2	0x3a08392d	0.0005196508
3	0x3e124b6d	0.14286585
4	0xbe456ecc	-0.19280547
5	0xbdd03b7a	-0.10167594
6	0xbc8d7190	-0.017266065
7	0x3e1b0108	0.15137112
8	0x3da6e32a	0.08148797
9	0xbdc5f0d6	-0.096650764
10	0x3d615e3c	0.05502151
11	0x3d53d1c4	0.05171372
12	0xbdeaed72	-0.1147107
13	0x3d1bbc33	0.038021278
14	0x3e581f03	0.2110558
15	0xbc253124	-0.010082517
16	0x3c39f228	0.011349238
17	0x3defe478	0.11713499
18	0x3d356f9a	0.044295885
19	0xbd6d973d	-0.05800556
20	0xbd6a086d	-0.05713694
21	0x3c84164b	0.016123911
22	0x3d936854	0.071976334
23	0x3d9d2b12	0.07674231
24	0xbcab56a8	-0.020915344
25	0xbdc0d5cc	-0.094157785
26	0x3ccc0809	0.024906175
27	0x3e405b2e	0.18784782
28	0xbe4a9cff	-0.19786452
29	0x3d072cfb	0.03300188
30	0x3e2d0b2a	0.1689879
31	0x3d5e6f4b	0.054305356
32	0x3dfd898b	0.1237975
33	0x3e42ea3a	0.19034663
34	0xbdc39a4e	-0.09550916
35	0x3d479dc8	0.048734456
36	0x3d2ea84b	0.042640965
37	0xbd39488f	-0.045235213
38	0xba89fa73	-0.001052691
39	0xbdbb7836	-0.09153788
40	0x3d83f51c	0.06443235
41	0x3c6610c6	0.014042085
42	0x3bddc08f	0.0067673395
43	0xbd159f96	-0.036529146
44	0x3ced4769	0.028964715
45	0x3e31fbd6	0.17381224
46	0xbcfdd88b	-0.030987045
47	0xbd99cf63	-0.07510259
48	0x3cdd08e7	0.026981784
49	0x3dc356d6	0.09538047
50	0xbd9622e4	-0.073308736
51	0x3d6d6714	0.05795963
52	0x3dff6de5	0.124721326
53	0x3e4cd125	0.20001657
54	0x3d871739	0.06596226
55	0xbd07f0f8	-0.03318879
56	0xbd9faec7	-0.07797008
57	0xbd185db7	-0.03719875
58	0x3d98229f	0.074284784
59	0xbd5da4b3	-0.054112148
60	0xbd998f57	-0.07498043
61	0x3e111bd6	0.14170775
62	0xbe403502	-0.18770221
63	0x3d891e6f	0.06695258
64	0xbe200101	-0.15625383
65	0xbdf2f2e2	-0.118627325
66	0xbdfd0357	-0.12354153
67	0xbdeb7e9f	-0.114987604
68	0xbded2937	-0.11580127
69	0xbea83d6c	-0.3285936
70	0x3ea1393d	0.31488982
71	0x3f252931	0.6451598
72	0xbdad36e3	-0.084577344
73	0xbd1d8529	-0.03845707
74	0x3dd48ae7	0.10378056
75	0xbe0a9bfb	-0.13536064
76	0x3df6348b	0.120217405
77	0x3d9fc780	0.078017235
78	0x3dd6c81d	0.10487387
79	0x3df8563d	0.12125824
80	0xbd6206c5	-0.055182237
81	0xbe1db1eb	-0.15399902
82	0x3e3c0218	0.18360174
83	0xbeb348ef	-0.3501658
84	0x3e3bc0d3	0.18335275
85	0xbde0c8b2	-0.109757796
86	0xbc1d49e4	-0.009600136
87	0x3d04e17a	0.032441594
88	0xbdf9461d	-0.12171576
89	0x3f5ec669	0.870215
90	0xbe6adafc	-0.22935098
91	0xbe81a5ae	-0.25321716
92	0xbe5829b5	-0.2110966
93	0xbe7ccaef	-0.24686788
94	0x3cc6d3f5	0.02427099
95	0xbdaf8537	-0.085703306
96	0xbc39527d	-0.011311171
97	0x3f168b38	0.5880618
98	0xbe05335d	-0.13007875
99	0xbd5ec429	-0.05438629
100	0xbbc3e108	-0.0059777535
101	0x3f0de08a	0.55420744
102	0x3bd49853	0.006487885
103	0x3d9e8ab2	0.07741298
104	0x3ed32dc9	0.4124587
105	0x3dd572b8	0.104222715
106	0x3d183d9e	0.037168138
107	0xbc720691	-0.014772073
108	0x3f39f2e3	0.7263624
109	0x3e2a5639	0.16634454
110	0xbc680e69	-0.014163592
111	0xbd3f30bb	-0.046677332
112	0x3cee974a	0.029124875
113	0x3d8141f5	0.063114084
114	0x3f2dd1b4	0.67898107
115	0x3cbe2f4d	0.023215914
116	0xbe2412d8	-0.16022813
117	0xbd77054f	-0.060307797
118	0x3bc06f87	0.00587267
119	0x3f35b7dd	0.7098368
120	0x3f27052d	0.6524227
121	0x3cd05f78	0.025436148
122	0x3f14c9ae	0.5812024
123	0x3d39e13c	0.045380816
124	0x3eecf6e4	0.46282113
125	0xbc1539fb	-0.009108062
126	0xbd2dc322	-0.04242242
127	0x3cacc567	0.021090223
128	0x3dc508fe	0.09620856
129	0xbcd97523	-0.026545113
130	0x3dd07487	0.10178476
131	0x3dc13c61	0.094353445
132	0xbcf60a69	-0.03003426
133	0xbdb62a8a	-0.088948324
134	0x3da9ffed	0.08300767
135	0xbe698ecf	-0.22808383
136	0x3ec05e1b	0.37571797
137	0xbd361af7	-0.04445931
138	0xbe8ac24f	-0.2710137
139	0xbd73d39d	-0.059527982
140	0x3dfddf02	0.12396051
141	0xbcfccb93	-0.03085879
142	0xbd2c7ba9	-0.04211012
143	0xbd68904d	-0.05677824
144	0x3d08d652	0.033407517
145	0x3d56a9cf	0.052408036
146	0xbdd4b63d	-0.10386322
147	0xbb46de34	-0.0030344846
148	0xbda3ddb8	-0.08001274
149	0xbef76237	-0.4831712
150	0x3e613daa	0.21996179
151	0x3eadbdd1	0.3393388
152	0x3f11ec93	0.5700161
153	0xbdd07dcc	-0.10180244
154	0xbe67c0f6	-0.22632203
155	0x3d83a09a	0.06427117
156	0x3d2bf911	0.041985575
157	0x3e065d6a	0.13121572
158	0x3e06334c	0.13105506
159	0xbcab2c08	-0.02089502
160	0x3ec64279	0.3872259
161	0x3c3706b4	0.011171032
162	0xbc77d4bf	-0.015126406
163	0x3928069a	0.00016024188
164	0xbce36692	-0.02775887
165	0xbd896700	-0.06709099
166	0xbd38ec74	-0.045147374
167	0x3d8aa69c	0.067700595
168	0x3e1cb3cf	0.15302967
169	0xbde0ba02	-0.10972978
170	0xbde55d47	-0.11199432
171	0xbd878b0b	-0.06618317
172	0xbdba74d6	-0.09104316
173	0x3df8fc23	0.12157466
174	0x3c4b2776	0.012399545
175	0x3daf2bb1	0.08553255
176	0xbf13ca35	-0.5773042
177	0x3eeb0ec4	0.45909703
178	0x3e062d77	0.13103281
179	0x3ea3b3fb	0.31973252
180	0xbee90a60	-0.45515728
181	0x3e6b4828	0.22976744
182	0xbe3cb89c	-0.18429798
183	0xbda593de	-0.08084844
184	0x3d2ba4ae	0.041905098
185	0xbf227a0a	-0.63467467
186	0xbe1aa601	-0.15102388
187	0xbd8f7103	-0.07003977
188	0x3b12e1a4	0.0022412324
189	0x3e722ad4	0.2364915
190	0xbe852d08	-0.2601092
191	0xbed3fa81	-0.41402057

mlp.0.weight f4 [64, 64]
0	0xbf25fc8c	-0.6483848
1	0x3efdead1	0.49593213
2	0x3f195763	0.59898967
3	0x3f287d57	0.65816253
4	0x3f3b9546	0.7327465
5	0x3e412d45	0.18864925
6	0x3f29426a	0.66116965
7	0x3f442ff3	0.76635665
8	0xbf8502bc	-1.039146
9	0x3f3b4183	0.7314684
10	0x3f8d5a78	1.1043234
11	0xbf1423e3	-0.5786726
12	0x3e2a34e5	0.1662174
13	0xbf427279	-0.7595592
14	0x3f1d4cc4	0.6144526
15	0x3f6a105f	0.9143123
16	0x3f04ff67	0.51952213
17	0xbf5c7355	-0.8611348
18	0x3f42da3b	0.76114243
19	0xbe9dde17	-0.30833504
20	0x3f6b4462	0.9190122
21	0x3f8ec367	1.1153382
22	0xbeacbaa6	-0.3373615
23	0xbf72b94b	-0.94813985
24	0xbf7f49d1	-0.9972201
25	0xbf1eb127	-0.61989063
26	0x3f896f4b	1.0737089
27	0x3f28a368	0.6587434
28	0xbefd9e1b	-0.49534687
29	0xbe979b0a	-0.29610473
30	0xbef0950d	-0.46988717
31	0xbf3927c9	-0.7232633
32	0xbf61f681	-0.8826676
33	0xbf571a55	-0.84024554
34	0xbf06886e	-0.52551925
35	0xbf371519	-0.7151657
36	0x3eb40019	0.35156325
37	0x3f6a049b	0.9141328
38	0x3f07d05b	0.530523
39	0xbf24d30e	-0.64384544
40	0x3f679aee	0.9047078
41	0x3f05e1f9	0.5229793
42	0xbf1944ee	-0.59870803
43	0x3f353916	0.7079023
44	0xbf31cf18	-0.69456625
45	0x3c58db14	0.013235826
46	0x3f3e2793	0.74279135
47	0x3f1deedd	0.616926
48	0x3f634f5e	0.8879298
49	0xbf72a105	-0.94776946
50	0x3f5934f5	0.8484643
51	0xbf93df6f	-1.1552562
52	0x3f6f61c4	0.93508554
53	0x3ec4e0b2	0.3845268
54	0x3f228e77	0.63498634
55	0xbf49057f	-0.7852401
56	0x3f314146	0.69240224
57	0x3f7ce5dd	0.98788244
58	0xbf519cd1	-0.8187991
59	0x3f3dc9b9	0.7413593
60	0xbf3a18ac	-0.72693896
61	0xbf5dee15	-0.8669141
62	0xbf45f232	-0.77322686
63	0x3f93da68	1.1551027
64	0xbd8871c5	-0.06662325
65	0x3d814e90	0.06313813
66	0xbdac4eef	-0.08413493
67	0xbdff1c08	-0.124565184
68	0x3d434ea8	0.047682434
69	0x3dc6bdd8	0.097041786
70	0xbbf98fdb	-0.007616026
71	0xbe024e8b	-0.12725274
72	0xbcb96386	-0.022630464
73	0xbdf5f3b6	-0.12009375
74	0x3db6f08a	0.08932598
75	0x3dde7ad2	0.1086327
76	0xbcfe72eb	-0.031060657
77	0xbc7c5632	-0.01540141
78	0xbb810c14	-0.0039382074
79	0x3d9f792c	0.077867836
80	0xbc8aaa5a	-0.016926933
81	0x3d3d4525	0.04620852
82	0xbdc91351	-0.098181374
83	0xbcfa9718	-0.030589625
84	0x3c480ef5	0.012210597
85	0xbd02d0e5	-0.0319375
86	0x3c8635a5	0.016383002
87	0x3c6a2ac8	0.014292426
88	0xbd72ecf3	-0.059308004
89	0xbcc7d52c	-0.02439364
90	0xbd1ab9ad	-0.03777473
91	0xbdb84886	-0.08998208
92	0xbdcd4d74	-0.10024539
93	0x3c3ea002	0.0116348285
94	0x3c4f7cfb	0.012664075
95	0xbc54a004	-0.012977604
96	0x3d0e6232	0.034761615
97	0x3dde6655	0.10859362
98	0x3d76ca3f	0.06025147
99	0x3ddb5f85	0.10711578
100	0xbdcc7de8	-0.09984952
101	0xbdc4aff5	-0.09603874
102	0xbde9fb24	-0.114248544
103	0xbc82ce50	-0.015967518
104	0x3d5a1c2d	0.053249527
105	0xbc94dc94	-0.018171586
106	0x3daad7f9	0.08341975
107	0xbc85f3e1	-0.016351642
108	0x3d368694	0.044561937
109	0x3d638cfd	0.05555438
110	0x3de3c08e	0.11120711
111	0xbdcdaa73	-0.10042276
112	0x3c1fe28f	0.009758606
113	0x3de97173	0.11398592
114	0x3d687d8d	0.05676036
115	0xbd1b69f8	-0.037942857
116	0x3dc55fe2	0.09637429
117	0xbda9b39c	-0.08286211
118	0xbd760799	-0.06006584
119	0x3dafc264	0.08581999
120	0xbce2b983	-0.02767635
121	0xbd9f5a45	-0.077808894
122	0x3d9d0a82	0.0766802
123	0xbce9f5bc	-0.028559558
124	0xbd0504c8	-0.032475263
125	0x3bc4b2f0	0.0060027763
126	0xbd4ec648	-0.050482064
127	0x3d12f1c1	0.035875086
128	0xbd2e123f	-0.04249787
129	0x3f20406c	0.625983
130	0x3d96e7bc	0.073684186
131	0x3d674fd0	0.0564726
132	0x3e556285	0.20838363
133	0xbeeadec2	-0.45873076
134	0x3d867bff	0.06566619
135	0x3d416f4c	0.04722528
136	0x3e8990dc	0.2686833
137	0x3dd68ef7	0.10476487
138	0xbecf99d2	-0.40547043
139	0xbe495f95	-0.19665368
140	0xbe157e8d	-0.14599057
141	0xbe29b8fe	-0.16574475
142	0x3e012ee6	0.12615547
143	0xbf0af9ff	-0.54287714
144	0x3df64c7d	0.12026308
145	0x3ea588e0	0.3233099
146	0x3e8ba8f8	0.2727735
147	0x3ec4e59a	0.38456422
148	0xbe9b7c6a	-0.30368358
149	0xbf23b721	-0.6395131
150	0x3db8c722	0.090223566
151	0x3cf46338	0.029832467
152	0x3f17da45	0.5931743
153	0xbe3639f1	-0.1779554
154	0xbe856733	-0.26055297
155	0x3e543c8e	0.20726225
156	0xbe6c3b5e	-0.23069522
157	0x3eee7529	0.4657376
158	0xbdfaefad	-0.12252746
159	0xbe8022dc	-0.25026596
160	0x3eee65ba	0.46561986
161	0xbe55001c	-0.20800823
162	0xbe3cb1aa	-0.18427148
163	0xbe3870d0	-0.18011785
164	0x3f11fccc	0.5702636
165	0xbd8bde46	-0.06829505
166	0x3e8bba23	0.2729045
167	0xbe5db7c8	-0.21652138
168	0x3e0d71ec	0.13812989
169	0xbd7271b9	-0.059190486
170	0xbe69c42f	-0.22828744
171	0x3e7a911b	0.24469416
172	0xbde0fa70	-0.10985267
173	0xbd59180d	-0.053001452
174	0x3e4b64e6	0.19862708
175	0x3dcd797a	0.100329354
176	0xbf373416	-0.7156385
177	0x3e87cddb	0.26524243
178	0xbce96a4d	-0.028493071
179	0x3f1fdcd1	0.62446314
180	0xbf2a69b0	-0.66567516
181	0x3e078fcf	0.13238452
182	0x3e30b62a	0.1725699
183	0xbd903608	-0.07041556
184	0x3e82f239	0.25575426
185	0xbf035c36	-0.5131258
186	0xbe0db080	-0.1383686
187	0x3d85e95c	0.065386504
188	0xbd4046fd	-0.0469427
189	0xbe235155	-0.15948994
190	0xbdb2d706	-0.08732419
191	0xbe9df2dd	-0.30849352
192	0xbf352634	-0.7076142
193	0x3f1d6115	0.6147626
194	0x3f184b15	0.59489566
195	0x3f1c9304	0.6116183
196	0x3f38fd0e	0.7226113
197	0x3ec0dc7d	0.3766822
198	0x3f30fd82	0.6913682
199	0x3f44031e	0.76567256
200	0xbf89c54f	-1.0763339
201	0x3f147e57	0.5800528
202	0x3f8df199	1.1089355
203	0xbf349c3d	-0.705509
204	0x3e4ac36c	0.1980111
205	0xbf206545	-0.62654525
206	0x3f1f78c4	0.6229365
207	0x3f7ce69b	0.98789376
208	0x3f268454	0.65045667
209	0xbf89c5a4	-1.076344
210	0x3f22b6b2	0.6356002
211	0xbe868474	-0.2627293
212	0x3f851cc4	1.0399404
213	0x3f91e88c	1.1399093
214	0xbde0e997	-0.10982054
215	0xbf3a55f0	-0.7278738
216	0xbf87e7af	-1.0617579
217	0xbf297218	-0.6618972
218	0x3f5dde0e	0.86666954
219	0x3efad6f9	0.48992136
220	0xbf39f92f	-0.7264585
221	0xbef5802c	-0.4794935
222	0xbf002893	-0.5006191
223	0xbf4515a0	-0.7698612
224	0xbf8e8f86	-1.113755
225	0xbf4ef58a	-0.8084341
226	0xbf24e868	-0.64417124
227	0xbf4285d7	-0.75985473
228	0x3ec9aa6e	0.3938784
229	0x3f5282cf	0.8223085
230	0x3f05cf80	0.52269745
231	0xbf31ff7d	-0.6953047
232	0x3f53657f	0.82576746
233	0x3f0d7541	0.5525704
234	0xbf095424	-0.53644013
235	0x3f2493a1	0.64287764
236	0xbf4dab4f	-0.8033952
237	0x3cdfa51b	0.027300408
238	0x3f3e00c0	0.74219894
239	0x3f33b793	0.7020199
240	0x3f7c1ec9	0.98484474
241	0xbf6aa047	-0.91650814
242	0x3f425cd0	0.7592287
243	0xbf846712	-1.0343955
244	0x3f8fbc42	1.1229327
245	0x3eafea66	0.3435852
246	0x3f393f03	0.72361773
247	0xbf59c2dc	-0.85062957
248	0x3f522ea7	0.82102436
249	0x3f74fcd4	0.95698285
250	0xbf5d59cd	-0.8646515
251	0x3f44f4d3	0.7693607
252	0xbf3274ab	-0.6970927
253	0xbf2b7f04	-0.66990685
254	0xbf2e1136	-0.6799501
255	0x3f861115	1.0473963

mlp.0.bias f4 [64]
0	0x3f342da2	0.7038213
1	0xbdc80fe3	-0.09768655
2	0x3cad93b6	0.021188598
3	0x3f2353e4	0.6379988
4	0x3ddc14ec	0.10746178
5	0x3d8c2470	0.068428874
6	0x3f39cb1f	0.72575563
7	0xbcf5ed94	-0.030020513
8	0x3f1d4d65	0.6144622
9	0x3f1acd31	0.6046935
10	0x3f099f78	0.53758955
11	0x3f1786fc	0.59190345
12	0xbd7dcc32	-0.061962314
13	0x3cc17c96	0.023618978
14	0x3e642dc8	0.22283089
15	0x3f321366	0.6956085
16	0xbe041097	-0.12896954
17	0x3f231b7f	0.6371383
18	0x3f3e164b	0.74252766
19	0x3dd1cf29	0.10244591
20	0x3f31f8c8	0.69520235
21	0x3f12cddb	0.5734536
22	0x3f2802e7	0.6562943
23	0x3f3d0959	0.7384239
24	0x3d888150	0.066652894
25	0xbd138ac2	-0.036021
26	0xbae593aa	-0.0017515321
27	0xbc917808	-0.01775743
28	0xbdc4e3ed	-0.09613786
29	0x3f223e36	0.63376176
30	0xbd877a90	-0.06615174
31	0xbe0160a1	-0.12634517
32	0x3f1eeab0	0.62076855
33	0x3d9f47e3	0.07777383
34	0x3e5a94db	0.21345846
35	0x3f449771	0.7679358
36	0x3f0b44da	0.54401934
37	0x3f28b132	0.6589538
38	0x3f2a5a54	0.6654408
39	0x3daae2b6	0.08344023
40	0x3f207e3f	0.62692636
41	0xbdca97a7	-0.09892207
42	0xbd4bb8ab	-0.04973666
43	0x3f4197ef	0.7562246
44	0x3f24a9c9	0.6432157
45	0xbd8fea09	-0.070270605
46	0x3d78e709	0.060767207
47	0x3d9330bb	0.07187029
48	0x3f38d729	0.7220331
49	0x3eede1be	0.4646129
50	0x3dc10160	0.094240904
51	0x3d648cfe	0.055798523
52	0x3f23f5eb	0.64047116
53	0x3da0283b	0.07820173
54	0x3f27afcc	0.6550262
55	0x3f20b7e0	0.6278057
56	0x3f2e7512	0.68147385
57	0x3f3a0f89	0.72679955
58	0xbe0c2e59	-0.13689555
59	0x3f3a3ace	0.7274598
60	0x3d9db985	0.07701401
61	0x3dd64c63	0.10463788
62	0x3f296d77	0.66182655
63	0xbbbf79a5	-0.0058433586

mlp.2.weight f4 [1, 64]
0	0x3f80ef18	1.0072966
1	0xbd85de86	-0.065365836
2	0xbf18c161	-0.5967007
3	0x3f832b43	1.0247577
4	0xbe82e1e6	-0.25562972
5	0xbd9e55fa	-0.077312425
6	0x3f7c4899	0.98548275
7	0xbe94dd8b	-0.29075274
8	0x3f82233b	1.0167001
9	0x3f865c97	1.0497006
10	0x3f87db9e	1.0613897
11	0x3f859f45	1.043923
12	0xbd65cb0a	-0.056101836
13	0xbf086744	-0.5328257
14	0xbef53b93	-0.47897014
15	0x3f8511e6	1.0396087
16	0xbdb67331	-0.0890869
17	0x3f817d51	1.0116369
18	0x3f83aa9e	1.0286443
19	0xbd9fa6bb	-0.07795473
20	0x3f7ca15b	0.9868371
21	0x3f843890	1.0329762
22	0x3f812090	1.0088062
23	0x3f833328	1.0249987
24	0xbc8ac279	-0.016938435
25	0xbed92599	-0.42411497
26	0xbdcd711e	-0.10031341
27	0xbcfc08e4	-0.030765958
28	0xbdab8a07	-0.08375936
29	0x3f8e60a2	1.112324
30	0xbd86af51	-0.06576408
31	0xbc687c13	-0.014189738
32	0x3f86d3ed	1.0533425
33	0xbf0819f2	-0.5316459
34	0xbe9435b4	-0.28947222
35	0x3f80c8ae	1.0061243
36	0x3f827e0c	1.0194716
37	0x3f881a30	1.0632992
38	0x3f84d9fa	1.0379021
39	0xbc881827	-0.01661308
40	0x3f848853	1.0354103
41	0xbd16f82d	-0.036857773
42	0x3dfb4b86	0.12270264
43	0x3f7825a3	0.9693243
44	0x3f86fffc	1.054687
45	0xbdde3719	-0.10850353
46	0xbf150f01	-0.5822602
47	0xbde932f3	-0.11386671
48	0x3f802e08	1.0014048
49	0x3f888f31	1.0668699
50	0xbef24bae	-0.47323364
51	0xbd420fb6	-0.047378264
52	0x3f89c602	1.0763552
53	0xbd9f398a	-0.077746466
54	0x3f80e0a5	1.0068556
55	0x3f80327e	1.0015409
56	0x3f85541e	1.0416296
57	0x3f7e8457	0.99420685
58	0xbde02cc5	-0.10946039
59	0x3f7f156f	0.9964208
60	0xbf01a66d	-0.5064457
61	0xbed3ccc5	-0.41367164
62	0x3f7d0fbc	0.98852134
63	0xbef745ef	-0.48295543

exp_avg f4 [32]
0	0xbc130640	-0.008973658
1	0xbf020e51	-0.50803095
2	0x3eae8e3a	0.34092885
3	0xbd82e78a	-0.06391819
4	0xbf95b1d2	-1.1694891
5	0x3ea5cb08	0.32381463
6	0x3d404a8a	0.046946086
7	0x00000000	0.0
8	0x3f0e77c9	0.5565153
9	0xbe7943f5	-0.2434233
10	0x00000004	6e-45
11	0x3cf2cc19	0.029638337
12	0x00000000	0.0
13	0xbe0c8f82	-0.13726619
14	0xbdbd8bad	-0.09255157
15	0x3e163584	0.14668852
16	0x3e5f056c	0.21779412
17	0xbfa29c08	-1.2703867
18	0x3d73ac8a	0.059490718
19	0x00000000	0.0
20	0xbf3ecb3d	-0.74528867
21	0x3f13084b	0.5743453
22	0xbf60f118	-0.8786788
23	0xbe4d6211	-0.2005694
24	0xbca88bcf	-0.020574478
25	0xbe44cde0	-0.1921916
26	0xbe634b13	-0.22196607
27	0xbd31e2ec	-0.0434293
28	0x3f1f5bb2	0.6224929
29	0xbd8643f2	-0.06555928
30	0xbcb78577	-0.022402508
31	0xbf1dc953	-0.6163532

exp_avg_sq f4 [32]
0	0x3e79cedf	0.24395321
1	0x4148ab58	12.541832
2	0x4098e578	4.7780113
3	0x4091a4fc	4.5513897
4	0x41f724b8	30.89293
5	0x4002c09e	2.0430064
6	0x4190a385	18.079844
7	0x00000000	0.0
8	0x420e5df3	35.591747
9	0x400f2d0d	2.2371247
10	0x2ba28670	1.1548106e-12
11	0x426414bc	57.02025
12	0x00000000	0.0
13	0x3ea9bae8	0.3315041
14	0x408e8682	4.4539194
15	0x3fbd9cfb	1.4813532
16	0x420580fe	33.37597
17	0x423c06e9	47.00675
18	0x3f0e09c3	0.55483645
19	0x00000000	0.0
20	0x410957a9	8.583901
21	0x4143b864	12.232517
22	0x42ffbcf4	127.86905
23	0x4018b2e9	2.3859198
24	0x42754873	61.32075
25	0x3e6d6c88	0.23185933
26	0x3f95ac29	1.1693164
27	0x3e21ffad	0.15820189
28	0x420c5b5f	35.08923
29	0x4064cbb9	3.5749342
30	0x41eea4a7	29.830397
31	0x41807e97	16.061811
